emo/compression_model_emo.pt (torch, 4659 bytes, 5 tensors)

dot_scale f4 [5, 5]
000000 b4 22 82 3f 5e 99 88 3f 1b 70 7c 3f e8 21 a8 3f
       1.016684 1.0671804 0.9860856 1.3135347
000010 17 29 8e 3f f6 3a 96 3f 1f 56 7c 3f c5 b6 51 3f
       1.110629 1.1736743 0.9856891 0.8191951
000020 42 99 8c 3f 0f 20 62 3f ee ca 96 3f c0 b3 80 3f
       1.098427 0.8833017 1.1780679 1.0054855
000030 bd 0e 80 3f fd 01 4f 3f cf 90 8b 3f e5 00 85 3f
       1.0004498 0.8086241 1.0903567 1.0390898
000040 7e c2 72 3f 3e 57 89 3f 16 c3 53 3f 54 76 8c 3f
       0.9482802 1.0729749 0.8271955 1.0973611
000050 ff 96 60 3f 1b 4a 95 3f b7 f9 93 3f 27 ea 70 3f
       0.877304 1.166324 1.1560582 0.9410729
000060 fa cb 8f 3f
       1.1234124

dot_bias f4 [5, 5]
000000 02 1e e7 bc 0a 0f 15 bd da ee 01 3e 74 c4 91 3d
       -0.028212551 -0.036391295 0.12688771 0.071175486
000010 82 e7 9e bd c9 52 88 bc 3a 42 17 bd 8a b7 8b bd
       -0.07759 -0.016641038 -0.036928393 -0.06822117
000020 9f c2 97 3d 87 c2 88 bd f6 c5 f2 bc d0 16 16 bd
       0.07410168 -0.06677728 -0.02963541 -0.03664285
000030 71 5a f2 3d 3a bb 89 3d ad bf 9d bd dc 5a f4 bc
       0.118336566 0.06725164 -0.07702575 -0.029828481
000040 34 97 16 bd e7 b1 f8 3d c2 7a 8c 3d 1f eb 9e bd
       -0.036765292 0.12143307 0.06859352 -0.077596895
000050 e4 d9 f0 bc 44 05 1c bd 9c d3 01 3e 37 3d 92 3d
       -0.029400773 -0.03809096 0.12678379 0.07140582
000060 17 6f a0 bd
       -0.07833689

w f4 [1, 5]
000000 ad 97 83 3e 23 49 4c 3e 05 e6 0d 3e df bb 3b 3e
       0.25701657 0.19949774 0.13857277 0.18333386
000010 52 90 8a 3e
       0.27063233

proj.weight f4 [64, 5]
000000 bc 9a 00 be ae b2 01 bf 37 fe d5 3d c1 fc 3e 3e
       -0.12559026 -0.5066327 0.10448878 0.18651105
000010 79 22 c8 bd 3b 6d 9c 3e 88 65 0c be e1 57 c0 3e
       -0.097722 0.30552086 -0.13710606 0.37567046
000020 a0 76 ab be 3b eb 06 3e 6d 63 b0 be b6 2e ee 3d
       -0.3348894 0.13175671 -0.34450856 0.11630003
000030 6a 35 bf bb 9c 6e c8 3d 36 c5 1e be 94 11 82 3e
       -0.005835225 0.09786722 -0.15504918 0.25404036
000040 4d 4d 17 be ee 7c 93 be 26 7e 46 bb ea 29 f6 3b
       -0.14775582 -0.2880625 -0.0030287593 0.0075123208
000050 ca 59 2a be 42 4e 1d be 46 75 98 3e 09 2d ed bc
       -0.16635814 -0.15361884 0.29776973 -0.028952138
000060 ce 46 e7 3e a7 ec 26 be 48 d7 8a 3e e4 6a 0b 3e
       0.45171207 -0.16301213 0.27117372 0.13614994
000070 ae 3f fb 3d 9d 26 e8 bb 74 d6 69 bd ec ef a9 be
       0.12268005 -0.007084681 -0.057089284 -0.33190858
000080 8c c2 2b be 27 d3 49 3e 6c 26 00 bf 38 74 b1 bd
       -0.16773432 0.19709454 -0.5005863 -0.08664745
000090 90 56 03 3f 09 c7 ef 3e 8e fb c6 bd 71 fe d8 be
       0.5130396 0.4683154 -0.09715949 -0.42381623
0000a0 55 27 77 be 8c 43 1f 3f 44 93 49 bc 05 06 07 be
       -0.24136098 0.62212443 -0.012303177 -0.1318589
0000b0 63 d5 93 3e df 64 08 bd c0 6e ac 3e e4 14 9a 3e
       0.2887374 -0.033299323 0.33678246 0.30094063
0000c0 64 fd 47 be e2 61 79 3e 63 8c 6f be 1e 57 b2 bd
       -0.19530255 0.24353746 -0.23393397 -0.087080225
0000d0 9f 95 e8 3e e8 da 22 3e a2 1f 5b 3e 70 6a 05 bf
       0.45426652 0.15903819 0.21398786 -0.52115536
0000e0 53 54 d0 3d cb f0 ed 3e 7d 98 b5 3e 6d 79 8b bd
       0.101723336 0.46472773 0.35467902 -0.068102695
0000f0 45 68 be 3e f4 c4 dc bd 9f 43 c6 be be f2 d5 3d
       0.37188926 -0.10779753 -0.38723466 0.1044669
000100 2b e6 60 3e 0f 8f ff bd 14 95 ae be 51 9d 5f 3e
       0.21962802 -0.12478458 -0.34098113 0.21837355
000110 d6 1f 9c 3e 30 f5 21 3e 11 60 f2 be 0b bd cf bd
       0.3049304 0.15816188 -0.47338918 -0.10143479
000120 63 2f 21 3e 9f fc 99 3d 00 36 ac be 1f 13 7e be
       0.15740733 0.07518887 -0.3363495 -0.24811982
000130 1d 9f 17 3c 73 6f 4d 3e 7c a4 ab 3e a2 98 84 3e
       0.009254244 0.20062046 0.3352393 0.258977
000140 7a 8a 81 be 69 c9 ae be 12 27 ed bd 25 26 bc 3e
       -0.25300962 -0.3413804 -0.11579718 0.36747852
000150 a1 51 b9 be 96 f1 09 3e 5b 79 ae 3d 1e 07 80 3d
       -0.3619509 0.13471064 0.085192405 0.062513575
000160 83 e3 0e bd 9a 91 30 3d 8b f6 cf bd ef 81 84 be
       -0.03488494 0.043107606 -0.10154446 -0.2588038
000170 85 21 f1 be 30 90 aa be 60 da b7 3e 21 a2 29 3e
       -0.47095886 -0.3331313 0.35908794 0.16565754
000180 19 50 00 3e 3d 6b b9 be 29 28 68 3e 07 38 f2 3e
       0.12530555 -0.3621463 0.2267157 0.4730837
000190 8b a9 c9 3e c4 34 20 3e 75 88 ee 3d 8c c0 e3 3d
       0.39387164 0.15645128 0.11647121 0.1112071
0001a0 68 03 10 3d 0b 1e ab be 2f 37 a5 3e ac 5b 8e bd
       0.0351595 -0.33421358 0.32268664 -0.06951079
0001b0 bc 2e e4 3e 28 88 3a 3e 9a 51 01 3e 57 2d 53 3e
       0.44566905 0.18216002 0.12628785 0.20622765
0001c0 e3 5e 96 be 14 fd d6 be 65 05 e6 3e 9d 05 a4 be
       -0.29369268 -0.41989958 0.4492599 -0.32035533
0001d0 6e c0 87 3e a4 27 a4 3d 81 0e 0a be 0f 53 ad 3e
       0.26514 0.08015373 -0.13482095 0.3385243
0001e0 26 3d 24 be 4c 6e c0 be 0d 4a 9a 3e 0f 39 b0 be
       -0.16038951 -0.3758415 0.3013462 -0.34418532
0001f0 07 a2 12 3c 06 15 77 3d 6e 8d b1 3c 41 c9 5c 3d
       0.008949763 0.060322784 0.021673884 0.05390287
000200 fb 50 72 be a0 a4 bf bc 8e 4f e5 be 39 26 a9 3e
       -0.23663704 -0.023393929 -0.44787258 0.33036974
000210 a7 26 05 3f ba 21 ad 3d 15 38 93 3d 0d 8b c9 3e
       0.52012104 0.084536985 0.07188431 0.393639
000220 11 d3 e8 3d c4 58 be be eb e0 df 3b c6 26 c0 ba
       0.11368383 -0.37177098 0.0068322322 -0.0014659993
000230 b6 f1 33 bd 06 68 6f 3e ff c3 7e 3e cd 03 ae 3c
       -0.043931685 0.23379526 0.24879454 0.021242047
000240 7e 27 81 be a8 4a e7 be 30 e5 be 3c 25 32 62 3e
       -0.25225443 -0.45174146 0.023302644 0.22089441
000250 9e 72 94 be 85 aa 8d 3d 86 76 78 bd 96 87 fe 3e
       -0.28993696 0.0691729 -0.060659908 0.4971282
000260 50 c8 3b be d0 40 ef 3e 18 14 08 3f 93 dd 38 3d
       -0.18338132 0.46729136 0.5315566 0.045133185
000270 98 b2 9f bc c6 d7 b0 3e f4 4e 8c be af 51 ec 3e
       -0.01949434 0.34539622 -0.27403986 0.4615607
000280 4b 92 aa be 8f cb 8a be 2d d0 af bd dd 05 ac 3e
       -0.33314738 -0.27108428 -0.08584628 0.33598223
000290 63 4e 5a bd 81 e7 72 3e b7 d1 c5 bc 8c 9e 22 3c
       -0.05329741 0.23721124 -0.024147851 0.009925496
0002a0 f6 f4 46 3e 09 61 16 3c 44 40 43 3d 11 d2 90 3e
       0.19429383 0.009178408 0.04766871 0.28285268
0002b0 2e a3 25 be 10 1a cf 3d 6c ad e5 be a8 80 65 be
       -0.1617553 0.10112393 -0.44858873 -0.2241236
0002c0 51 04 21 be 52 c2 25 3e bc 9e 22 3e 81 56 ea be
       -0.15724303 0.16187409 0.15880865 -0.45769122
0002d0 63 e8 20 3e e8 ca ab be 60 a6 26 3d 45 c8 52 be
       0.15713648 -0.33553243 0.04068601 -0.2058421
0002e0 d1 87 dc 3c 33 8b a7 3e 21 53 de 3e e0 df 9a bd
       0.026920231 0.32723388 0.43422797 -0.07562232
0002f0 ff 5c 08 be c7 21 d1 be cc 0d 0f 3d 1e c2 9a 3e
       -0.13316725 -0.40846083 0.034925267 0.30226225
000300 a8 98 26 3e 20 1b 8d 3d 26 d4 16 3e 6e b6 55 3e
       0.16269171 0.06889939 0.14729366 0.20870373
000310 84 8e a5 be c8 77 0a be 15 72 7f be f2 ce 66 be
       -0.32335293 -0.13522255 -0.24945863 -0.22539881
000320 bb a7 ed 3e 4e e1 6f be 92 28 98 be 3a d3 13 3e
       0.4641703 -0.2342579 -0.29718453 0.14436045
000330 de d4 9a bd 26 d6 58 be 7f 0f 2a 3d 33 87 d2 be
       -0.075601324 -0.21175441 0.041518684 -0.41118774
000340 06 89 b9 bd 0f 1b e4 3e 03 84 b8 be 53 a2 be 3e
       -0.09059338 0.44551894 -0.36038217 0.3723322
000350 82 26 8a 3e 69 ed d0 3e fd aa 51 be 4e d6 35 3e
       0.26982504 0.4080613 -0.20475383 0.17757532
000360 16 3c 0c be 6f 86 fe 3c 40 bf 0e 3f 1a 2c 4a 3b
       -0.13694796 0.031069962 0.55760574 0.003084904
000370 1b 82 b6 be 5f 5a f0 be 40 23 bf 3e 50 23 c6 bd
       -0.35646138 -0.46943948 0.3733158 -0.09674704
000380 30 61 31 3d d0 00 9b be 4a 65 dc 3d 9a 9d 10 3b
       0.043305576 -0.30274057 0.10761507 0.0022066594
000390 90 60 a8 3e a2 4d 80 3c b2 23 76 3d 3e 8f 9d be
       0.3288617 0.015662018 0.060092635 -0.30773348
0003a0 06 20 79 3e 3c b9 35 be 0d 64 9c be 8b 90 03 be
       0.24328622 -0.17746443 -0.30545083 -0.12848108
0003b0 ae 65 4e bd 2b 4d de be c5 69 dc 3d 3c b6 5e 3e
       -0.050389938 -0.4341825 0.107623614 0.21749204
0003c0 bb 14 97 be 3d 0a 8f bd 8f 4d 8a 3e 13 c5 9c be
       -0.29508004 -0.06984375 0.27012298 -0.30619106
0003d0 21 c4 70 be 94 16 95 be f1 72 b4 3e 8f fb 66 bd
       -0.23512317 -0.29118788 0.35243943 -0.05639225
0003e0 f7 fe 87 bc 25 3a ae be c8 46 b8 3d 34 ff b0 3d
       -0.016601069 -0.34028736 0.089978755 0.08642426
0003f0 15 10 9c be b5 11 99 be cb 50 bb be ed 63 a9 3e
       -0.3048102 -0.29896322 -0.36585078 0.3308405

proj.bias f4 [64]
000000 aa 09 13 3e 31 19 8b bd 40 44 67 3d a8 12 8a 3d
       0.14359155 -0.06791914 0.056461573 0.0674184
000010 04 68 bf bd 8a a6 e1 bd 61 14 54 3e c6 fb 1b be
       -0.09346011 -0.11018093 0.20710899 -0.15232763
000020 88 ad 53 be 66 1e 26 be b9 9c 1c be 50 b4 0e be
       -0.20671666 -0.16222534 -0.1529416 -0.13935971
000030 c5 1a 07 bd 15 79 97 bd b5 20 19 3e b7 f7 2c be
       -0.032984514 -0.073961414 0.14953883 -0.1689137
000040 84 c6 1f 3e 5f fb 96 bd 17 b3 8e 3e ab fd 1c be
       0.15603071 -0.07372164 0.2787101 -0.15331142
000050 e2 2a 5d be c7 41 38 be 86 29 18 3d da d2 53 bd
       -0.2159839 -0.17993842 0.037148975 -0.051714756
000060 ba 14 55 3e f8 03 dd 3a 9d 4f 31 be 79 47 b4 bc
       0.20808688 0.0016862145 -0.17315526 -0.022006737
000070 77 36 a7 bd 3b 99 f8 3d a9 9e b1 be 92 24 fb bd
       -0.08164685 0.121386014 -0.3469136 -0.122628346
000080 e7 a3 ac 3d 98 49 f4 bd 39 d2 c1 3c 5e 9d d3 3d
       0.084296994 -0.119280994 0.023659812 0.1033275
000090 ea 12 da 3d 5e f7 79 bd 1d 48 45 be 34 93 54 3e
       0.10648139 -0.061026923 -0.1926579 0.20759279
0000a0 14 58 e2 ba 25 2e b2 3d 74 10 52 be aa 05 4e be
       -0.0017268681 0.087002076 -0.20514089 -0.20119348
0000b0 fd e8 0c 3e 2f de 8b bd 63 af 02 3e 45 0f 5f 3e
       0.13760753 -0.068294875 0.12762217 0.21783169
0000c0 aa d1 2a 3e b6 7a 89 3d 38 63 68 3e 42 07 87 bd
       0.16681543 0.067128584 0.22694099 -0.06593181
0000d0 25 2b 66 3d c8 2a fd bd 78 cf 34 3e dd f9 3c 3e
       0.05619349 -0.123616755 0.17657268 0.1845469
0000e0 8c fe 8e 3e 8a 27 43 3e 62 74 05 be 63 67 ff 3d
       0.2792858 0.19058052 -0.13032678 0.12470891
0000f0 0a 36 fd bc 7c a0 61 3d d7 72 22 3e c0 e3 8e be
       -0.030909557 0.05508469 0.1586412 -0.27908134
