friend/compression_model.pt (torch, 6797 bytes, 6 tensors)

dot_scale f4 [10, 10]
00000000: 9dc8 813f e07a 883f a02f 8c3f 9aa4 893f
00000010: 749a 823f 8f68 953f ba56 733f cd29 853f
00000020: f817 923f f213 833f 19ce 8f3f 1724 6b3f
00000030: b365 873f 3c41 833f a40b 5d3f 1caa 8f3f
00000040: a720 9e3f e2e5 813f c884 743f 549f 693f
00000050: f5c2 923f 5517 a53f e50d 9c3f 4ca7 893f
00000060: d075 873f 5128 7a3f 6c45 7b3f 7b1f 983f
00000070: 7784 9d3f b623 a03f b153 803f 1f23 6b3f
00000080: 5b30 513f 0076 873f 35a8 8d3f dddb 933f
00000090: dca2 7f3f 47e0 743f d757 673f 4acc 973f
000000a0: 9711 843f 78ff 7b3f 94c6 7e3f 8185 863f
000000b0: e9fa 6e3f ffb3 943f 2d19 a53f 77e6 873f
000000c0: 6b3c 723f df4e 963f de9b 833f 0f3d 463f
000000d0: c0bf 6b3f 3117 833f cd5e 8a3f c1b5 773f
000000e0: 4b4f 7f3f 9b6c 843f 6f8f 943f 58c9 863f
000000f0: 07fc 873f e3eb 9d3f 2164 8c3f 7052 623f
00000100: 3f33 903f 7e64 8a3f 2517 8e3f 0118 6f3f
00000110: 7c61 753f d98e 833f 3327 a03f 038d 7e3f
00000120: 82b9 7e3f e602 833f 6f16 953f 0cb6 8e3f
00000130: a209 673f e6f7 813f eb04 6e3f 509f 913f
00000140: 3cf1 943f 2bcc 6b3f e735 6c3f cc8d 8f3f
00000150: 8a69 603f 8c6b 863f 2309 7f3f 32cd 743f
00000160: e2d6 863f e2ed 813f 4cb1 813f 1c98 763f
00000170: 9c53 943f 923b 5a3f c841 a13f 702f 8b3f
00000180: 1f5f 7b3f b0a2 6c3f 8278 5a3f 4e81 923f
1.0139347 1.0662498 1.0952034 1.0753357 1.0203385 1.1672534 0.9505421 1.0403382
1.1413565 1.0240462 1.1234771 0.91851944 1.0577911 1.0254283 0.8634589 1.1223788
1.2353715 1.014828 0.9551511 0.9125874 1.1465746 1.2897745 1.219174 1.075418
1.0582829 0.9771777 0.98152804 1.1884607 1.230605 1.2510898 1.002554 0.91850466
0.8171441 1.0582886 1.1066958 1.1551472 0.9985788 0.9565472 0.9036841 1.1859219
1.0317868 0.9843669 0.99521756 1.0509492 0.9335161 1.161743 1.2898308 1.0617207
0.9462344 1.174282 1.0281942 0.7743692 0.9208946 1.0241452 1.0810181 0.9676171
0.99730366 1.0345644 1.1606272 1.0530195 1.0623788 1.2337612 1.0968057 0.8840704
1.1265639 1.0811918 1.1100813 0.93396 0.95851874 1.0277969 1.2511963 0.99433917
0.9950181 1.023526 1.1647471 1.1149306 0.90249074 1.0153778 0.92976254 1.1376743
1.1636119 0.9210841 0.9226975 1.1215148 0.8766104 1.0501571 0.99623317 0.95625603
1.0534327 1.0150721 1.0132232 0.9632585 1.1588016 0.8524715 1.25982 1.0873852
0.9819202 0.9243574 0.8534013 1.1445711

dot_bias f4 [10, 10]
00000000: 3c48 75bd 06ee cabd 1519 94bd 4b96 45bd
00000010: b17a c9bd 5025 893d d4cf 46bc e7f4 14bb
00000020: 5d2d 253d be12 803d 9f0a 75bd 637b 2fbe
00000030: ba2b ddbc 1294 dcbc ed23 a5bd e21b 723c
00000040: fe33 fabb 7948 1fbe 5521 8dbd 994f 5f3d
00000050: a47f 06bc 4c76 3cbd 7c90 99bd 5c38 b9bd
00000060: 2ba2 1dbb c9af 86bc 8e80 b2bd 19f0 5fbc
00000070: 24a1 8c3d 33c1 5c3d dff7 393c b20d a8bd
00000080: 0c19 47bd a3d4 ddbd 4cc0 44ba 9dfb 043d
00000090: 5020 f53d cf6d 00be ea1a ea3d c648 cd3d
000000a0: 98ba 99bd 9d5d 09be 3134 8bbd 0edd 9cbd
000000b0: 790e e0bd 6c93 4b3d 85d0 6a3c d802 ecbc
000000c0: 5443 803d 32c5 743d c4a6 06bd 4cdf cebd
000000d0: 2abd e63c 9e68 edbc 07d7 b1bc fda3 3bbd
000000e0: 20bd 953d 7406 a13d a30c f13c fbb0 ba3d
000000f0: fecd c0bc 04a5 c53c ae26 1c3d b45a fcbd
00000100: 3e6d 9abd 7dcc 723d 059d 77bd aedf f1bd
00000110: 5907 2abe f07d 1cbd 09dc 4d3c 09fe bdbd
00000120: affd 6c3d 8b1e fcbd 37d5 2d3c 9298 cf3c
00000130: 8e1c 9e3c e62f 8fbd 14d1 31bd 3e0e 8a3d
00000140: 4cf7 45bc 0725 adbd 47c3 d0bd c98a 2a3b
00000150: 2c5f 86bc e111 46bc aef2 47bd eafc ebbc
00000160: 1fa2 5ebd 662e aa3d 3c24 073c 498b d1bd
00000170: b56e 2a3d 95fc 01ba 1945 a6bc 30f2 e83c
00000180: 1efd 933c 5a94 03be 0a35 16be cd26 843d
-0.05988334 -0.099086806 -0.072313465 -0.048239034 -0.09837855 0.0669657 -0.012134511 -0.002272898
0.040326465 0.06253575 -0.059824582 -0.17136912 -0.02699839 -0.026926074 -0.08063493 0.014777156
-0.0076355925 -0.1555499 -0.06891123 0.05451927 -0.008209143 -0.046011254 -0.07498261 -0.09043953
-0.0024052958 -0.016441243 -0.08715926 -0.013668084 0.06866673 0.053895187 0.011350601 -0.08205737
-0.04860787 -0.10831573 -0.0007505461 0.03246652 0.11969054 -0.12541889 0.11430915 0.10023646
-0.07506293 -0.13414617 -0.06797064 -0.0765935 -0.109402604 0.04970114 0.0143319415 -0.02880995
0.06262842 0.059758373 -0.032873884 -0.10101184 0.028166372 -0.02898055 -0.021708978 -0.04581069
0.07311463 0.07862559 0.029424971 0.091157876 -0.023535725 0.024126537 0.038122825 -0.12321988
-0.075403675 0.059277046 -0.06045248 -0.11810242 -0.16604365 -0.03820604 0.0125646675 -0.09276969
0.05785912 -0.12310513 0.010609916 0.025341306 0.019300725 -0.06991558 -0.043412283 0.06740998
-0.012082886 -0.08454328 -0.10193496 0.0026022664 -0.016402803 -0.012089224 -0.04881542 -0.028807122
-0.05435383 0.08309631 0.008248385 -0.10231645 0.041609485 -0.0004958597 -0.02029662 0.028435796
0.018065032 -0.1284956 -0.1466867 0.06452713

w f4 [1, 10]
00000000: 8d62 073e 689d ea3d dee5 a53e 6dd3 183e
00000010: c06f 563e e093 273e c816 243e 3ad1 863e
00000020: e3e9 e63d da72 313e
0.13221188 0.11455804 0.32401937 0.14924403 0.20941067 0.16365004 0.16024315 0.26331502
0.11275079 0.17328969

proj.weight f4 [64, 10]
00000000: 9b83 47be 5045 4c3e 4f05 c5be f820 8dbd
00000010: 82d7 42be eabc b6bd 47fe 2d3e 8986 85bd
00000020: 6d31 2abd 7a72 223e fc43 89bd 396f 70be
00000030: a04c bfbe f4ae 94be 9ef1 e43c 8f6f d6bd
00000040: 5708 843e 6b4b a6be 213a 7c3c b599 923d
00000050: 3427 82bd ee6a 003d a180 2c3e 2fda 6a3d
00000060: 1f06 b13e a632 5fbe 8829 d2bd 2f4b 8d3e
00000070: df5e 9bbd 8fc0 86be 8b79 883e b2c4 f5bd
00000080: df27 58be 51df 91be 88d4 973d 9b0f 6fbe
00000090: 3140 543e bff3 16be e5bb d0bd a4ce 53be
000000a0: 13ff 39be 6655 273e 0413 053d 3814 c7bd
000000b0: 6f7b 553e d4ab 82be 7b7d 613d 9a44 833e
000000c0: 04fa aebe 71dc 88be 71cd 883e 27b1 5e3e
000000d0: 320f 47be a1e1 aa3e 8334 253c e674 a7be
000000e0: 6737 9bbe 5d52 973e be3b 98be b0b3 9dbc
000000f0: 3a47 9fbd ba8b 3bbd 2f42 c0bd a367 f23d
00000100: 573c 433d cec9 28be bc23 943e 6ff5 7c3c
00000110: 8836 8e3e 35cb 783e 7206 cfbd eacd 43be
00000120: 71e1 7fbd a5aa 953e b557 30be 48d0 a5be
00000130: 8de4 00be 14e1 cb3e 18ca 09be cb7c 36ba
00000140: ca84 92be 404c 83bb 9bf8 dc3d 1ceb aebd
00000150: 2ef9 f63d 10a8 473e 4fdb 2cbe 9790 b13d
00000160: 4c1e 203e ad32 9abe b487 863e d133 27bd
00000170: 5d82 86be abfe 2fbe 881d 633e 062b 86be
00000180: bab9 77be 6931 2cbe 041b 563d cd14 85be
00000190: b315 cdbd b277 47bd a209 683e 671d 6fbd
000001a0: 2ee3 7dbe 5bb5 a1be 0067 553e c318 31bd
000001b0: 2cf1 bf3d 8ff8 09be 7867 55be 1983 f4bc
000001c0: e1f9 183e 3875 9ebc 19b8 2abe 9ebe 043c
000001d0: ef80 aa3e 4e18 f2bd 1b84 e0bd a3e6 c93d
000001e0: ba9d 5dbd f884 55bd 8595 a9bc 4f7b 61bd
000001f0: be55 f3bd 2490 d13e 3d2d 20be d790 54be
00000200: 493b ba3e d213 163d e894 373e 1c46 4b3e
00000210: 1d93 4bbe a385 0dbe b5e6 613e 2f79 90be
00000220: a54f 4fbe 5785 e9bd 76e8 94bc f0cf a7be
00000230: 81ac 37be 7dc7 1fbe 382e fe3d 7a84 a53e
00000240: 5082 ba3d ddc9 4c3e 2b00 d9bd 683e 11be
00000250: 4522 a93e a1a8 dfbd 9dd9 693e 847e 093e
00000260: a720 443e 8140 6b3e 30a1 5e3d 6dda 59bd
00000270: 4368 73bd afbf 803e f1f6 f33d 1e66 8a3e
00000280: 35f4 0ebe 841c ae3d a5ce 343d 0585 e53d
00000290: 6b49 9b3e 6b8d 2c3e bf54 39be 4ab1 973e
000002a0: 7851 c3be 4189 ccbe edb4 ea3d a80f 513e
000002b0: 1864 5a3d e855 0ebe 1c05 193d fc07 243e
000002c0: e164 e93d b17b a0be ac52 95be aafe 863e
000002d0: e87e a23e 7cc1 8e3e 3329 a03d 38ea 03bb
000002e0: 24c9 a0be 8333 35bc d4d0 c5bc 6c94 55be
000002f0: 7254 2a3e b8c4 763e ab0c c9be 317b b43e
00000300: 290d 9e3e 950d b83e d8b6 cb3e d21a 5c3e
00000310: 952c 68be 7786 a0be 5bf7 c1be 9732 7ebe
00000320: c202 a9be cad0 b53e 7302 75be 0fea 6e3e
00000330: 39cf 263e 5c05 ccbc 184d 0bbe 08d1 a9bb
00000340: 986b 48bd 10d2 93bd c48a 3c3e 6e1f 92bc
00000350: 0a68 5cbd 38e7 4ebd 2d71 f3bd 9e75 b53d
00000360: ec87 743e 3802 083e eba8 60bd 6cd6 fb3d
00000370: dc50 0d3e e60e c23e 246f f33d e2fd 8cbd
00000380: 5d99 08be 4139 bebc 83ee d3bc bb2f 40be
00000390: 6f40 05be c994 6d3e cd96 ac3c 71b2 973e
000003a0: 4fbd 873e 0dd3 37be c22f a2be 1643 08be
000003b0: 3419 383d cb43 a0be 6421 54bc c560 cabd
000003c0: d3f3 943e 887f a53e 435c 9abd 38d4 143e
000003d0: 2529 ac3d 8837 55be 7fb1 8ebe 4257 f9bc
000003e0: d5ec 81be 0783 01bd 54b9 aebe af3f 51be
000003f0: f159 ce3d bda5 643e 71f8 7ebe 0173 823e
-0.19483797 0.19948316 -0.38480613 -0.06891054 -0.19027522 -0.08922751 0.1699153 -0.06519801
-0.041551042 0.15863982 -0.0670242 -0.23479928 -0.37363148 -0.2903973 0.027947243 -0.10470497
0.25787613 -0.32479414 0.015394718 0.071582235 -0.06355134 0.031351976 0.16845943 0.057336982
0.34574983 -0.21796665 -0.10261828 0.27596423 -0.075864546 -0.26318786 0.2665523 -0.12000407
-0.2110896 -0.2849069 0.07413584 -0.23345797 0.20727612 -0.1474142 -0.10192088 -0.20684296
-0.1816371 0.1634117 0.032488838 -0.09720653 0.20847867 -0.2552172 0.055051308 0.25638276
-0.34175122 -0.26730683 0.2671924 0.21747266 -0.1943939 0.33375266 0.010083321 -0.32706374
-0.30315706 0.29555026 -0.2973308 -0.01925072 -0.07777257 -0.04578755 -0.093876235 0.118361734
0.047664966 -0.16483232 0.28933513 0.015439375 0.2777598 0.24296267 -0.10108651 -0.19121519
-0.062470857 0.29231754 -0.17220958 -0.32385468 -0.12587185 0.39820158 -0.13455999 -0.00069613446
-0.28616935 -0.0040068924 0.10789605 -0.08540937 0.12059246 0.19497705 -0.16880535 0.086701564
0.15636557 -0.30116788 0.26275408 -0.0408209 -0.26271334 -0.17186992 0.22179234 -0.262047
-0.24191943 -0.16815723 0.052271858 -0.25992432 -0.100139044 -0.048698135 0.22659925 -0.05837765
-0.24793693 -0.31583676 0.20840073 -0.043236505 0.09372172 -0.13473724 -0.20840251 -0.029847668
0.14939071 -0.019343004 -0.1667179 0.008102087 0.33301494 -0.11821042 -0.10962697 0.098584436
-0.054105498 -0.052128762 -0.02070118 -0.055049237 -0.118815884 0.40930283 -0.15642257 -0.20758377
0.36373356 0.036639996 0.17927897 0.19850963 -0.19880338 -0.1382051 0.22060664 -0.28217456
-0.20245226 -0.11402386 -0.018177252 -0.3277583 -0.17936899 -0.15603442 0.12411159 0.32327634
0.091068864 0.1999888 -0.10595735 -0.14183962 0.33033958 -0.10920835 0.22836919 0.13427168
0.19153081 0.22973825 0.05435294 -0.053186823 -0.059425604 0.25146243 0.11912335 0.27031034
-0.13960345 0.08501533 0.044142384 0.11207012 0.3032945 0.16850822 -0.18098734 0.29627448
-0.38148093 -0.39948466 0.1146029 0.20416129 0.053318113 -0.13899958 0.03735839 0.16018671
0.11396194 -0.3134437 -0.29164636 0.26366168 0.31737447 0.27881992 0.07820358 -0.002012862
-0.31403458 -0.011059645 -0.024147429 -0.208574 0.16633776 0.2409848 -0.39267477 0.35250238
0.30869415 0.35947862 0.39787936 0.21494606 -0.22673257 -0.3135259 -0.3788403 -0.24823986
-0.33009917 0.35510856 -0.23926716 0.23331474 0.16289987 -0.0249049 -0.13603628 -0.005182389
-0.048930734 -0.072178006 0.1841231 -0.017837252 -0.053810157 -0.050513476 -0.11886821 0.08860324
0.23879975 0.13282096 -0.054848593 0.12296757 0.13800377 0.37901992 0.11886433 -0.06884362
-0.13339753 -0.02322066 -0.025870567 -0.18768208 -0.1301286 0.23201288 0.021068001 0.29628327
0.26511618 -0.17951603 -0.3167706 -0.13306841 0.04494591 -0.31301722 -0.012947414 -0.098817386
0.29092273 0.3232386 -0.07537129 0.1453408 0.08406285 -0.20821965 -0.27869794 -0.030437116
-0.25376 -0.031619098 -0.3412577 -0.2043445 0.10075749 0.22328849 -0.2489946 0.25478366

proj.bias f4 [64]
00000000: ab4f 0a3e 35dc 6b3e 0077 b0bc f89f 3c3e
00000010: 5a47 063e 56bf 8dbc a668 36be 74c3 7f3d
00000020: a5b4 fb3d bb26 503e bcd6 b03d a76b ccbb
00000030: f8df 46be ee03 3f3e 8dfb 94bd c1bc babe
00000040: 9048 ab3d 5f68 c5bd 2b1f 1fbe 26d9 283a
00000050: ca1c 873d 085f dcbd 1161 e1bd 58db c93d
00000060: f55b 81bc e104 333d 61fd 043e f303 143e
00000070: e479 053e 1f39 74bd 3f84 0c3e 8dce 403e
00000080: af0b a33d f643 e5bd 88bd 213e a59a f03d
00000090: 9722 07be b1be 52be 59f2 683d a5e0 023d
000000a0: 6cb6 c93d a42b 23be 5e8b 6fbe aec3 143e
000000b0: 0461 2ebc ae2f 96be 2ff5 23be e497 eabd
000000c0: fc4b 40bd ab95 803c cace 22bd c475 c33d
000000d0: f712 7f3d 9d0e 6dbe c971 2a3e c06a 97be
000000e0: 77ad b13d 6ca3 cb3c 3d6b cb3d 9727 193e
000000f0: 72f5 c1b9 f7e9 14be 2e3e 37be a647 0bbe
0.13506953 0.23033221 -0.021541119 0.18420398 0.13113156 -0.01730315 -0.17813358 0.062442258
0.122903146 0.20327275 0.08634707 -0.006238419 -0.19421375 0.18653843 -0.07274542 -0.36472133
0.083634496 -0.09639048 -0.15539233 0.0006441049 0.06597288 -0.10760313 -0.11004842 0.098562896
-0.015790919 0.043705825 0.12987281 0.14454632 0.13034779 -0.059624787 0.13722323 0.18828793
0.07961213 -0.11194603 0.15794957 0.11748246 -0.13196789 -0.20580555 0.056871746 0.03195252
0.09849247 -0.15934616 -0.23393008 0.14527771 -0.0106432475 -0.29333252 -0.16011499 -0.11454752
-0.046947464 0.015696367 -0.03974799 0.095439464 0.062273946 -0.23150106 0.16644968 -0.2957363
0.08675664 0.024858199 0.099325635 0.14956509 -0.000369947 -0.14542376 -0.17894813 -0.1360155

logits f4 [2]
00000000: 48da d13d 47da d1bd
0.10246712 -0.10246711
