depolarizer/political_compression_model.pt (torch, 6981 bytes, 6 tensors)

dot_scale f4 [10, 10]
0	0x3f738ae7	0.95133823
1	0x3f7c0449	0.9844404
2	0x3f8da891	1.1067067
3	0x3f8a124a	1.0786831
4	0x3f72f672	0.94907296
5	0x3f5f72e6	0.87284696
6	0x3f869117	1.0513028
7	0x3f882e6d	1.0639168
8	0x3f9422c9	1.1573116
9	0x3f728eea	0.9474932
10	0x3f7ca7a8	0.98693323
11	0x3f83e44e	1.0304048
12	0x3f949da5	1.1610609
13	0x3f8b0fb0	1.0864162
14	0x3f7e5084	0.9934161
15	0x3f95ac90	1.1693287
16	0x3f6f48eb	0.9347064
17	0x3f96a2ad	1.1768395
18	0x3f8bc532	1.0919554
19	0x3f9d3b52	1.2283728
20	0x3f6ba1a2	0.9204351
21	0x3f6b0c78	0.918159
22	0x3f9356c7	1.1510857
23	0x3f8e45a4	1.1115003
24	0x3f56916a	0.83815634
25	0x3f750fb5	0.9572709
26	0x3f845222	1.0337565
27	0x3f8b6fa6	1.0893447
28	0x3f67e6a1	0.90586287
29	0x3f9afaa2	1.2107737
30	0x3f876b77	1.0579671
31	0x3f982f48	1.1889429
32	0x3f7c601d	0.9858416
33	0x3f81bdb9	1.0136024
34	0x3f778977	0.9669413
35	0x3f82b500	1.0211487
36	0x3f85d22a	1.0454762
37	0x3f9898ae	1.1921594
38	0x3f8a802e	1.0820367
39	0x3f74c4bd	0.956127
40	0x3f781326	0.9690422
41	0x3f7a706b	0.97827786
42	0x3f808689	1.0041057
43	0x3f87d30e	1.0611284
44	0x3f894887	1.0725259
45	0x3f85712e	1.0425165
46	0x3f900cd5	1.1253916
47	0x3f8214e4	1.0162625
48	0x3f934d08	1.1507883
49	0x3f948799	1.1603881
50	0x3f697e3a	0.9120823
51	0x3f5efd8d	0.8710564
52	0x3f9d813b	1.2305063
53	0x3f851101	1.0395814
54	0x3f95347f	1.1656646
55	0x3f970226	1.1797531
56	0x3f8e8737	1.1135014
57	0x3f771a2c	0.9652431
58	0x3f94ecbf	1.1634749
59	0x3f77dd49	0.9682203
60	0x3f5bfa89	0.8592916
61	0x3f990e1e	1.1957433
62	0x3f7d9ba5	0.9906562
63	0x3f6ecea8	0.9328408
64	0x3f92e7c9	1.1476985
65	0x3f954831	1.1662656
66	0x3f8349d3	1.0256904
67	0x3f89156e	1.0709665
68	0x3f93adec	1.1537452
69	0x3f83f1b4	1.0308137
70	0x3f834c14	1.0257592
71	0x3f73f4a6	0.9529518
72	0x3f5f64f9	0.8726345
73	0x3f88ff9d	1.0703007
74	0x3f941afa	1.1570733
75	0x3f9223ca	1.1417172
76	0x3f966403	1.1749271
77	0x3f6cbacb	0.92472523
78	0x3f892f84	1.0717626
79	0x3f4d7793	0.8026058
80	0x3f5e4439	0.8682285
81	0x3f856d1b	1.0423921
82	0x3f80502b	1.0024465
83	0x3f81a75b	1.0129198
84	0x3f768adc	0.9630563
85	0x3f9be3b4	1.2178864
86	0x3f84dbd8	1.0379591
87	0x3f9cc9e9	1.2249118
88	0x3f8ff993	1.1248039
89	0x3f4e67eb	0.80627316
90	0x3f88c9d1	1.068659
91	0x3f792bcd	0.9733246
92	0x3f6bca0a	0.9210516
93	0x3f870f3d	1.0551525
94	0x3f701587	0.9378285
95	0x3fa41d4c	1.2821441
96	0x3f8ba793	1.0910515
97	0x3f8ca182	1.0986788
98	0x3f9a6464	1.2061887
99	0x3f9fa898	1.2473326

dot_bias f4 [10, 10]
0	0xbdd92f11	-0.1060468
1	0xbe2f12ba	-0.17096987
2	0xbbaecea9	-0.0053346944
3	0xbdaf7e93	-0.08569064
4	0xbde0640d	-0.10956583
5	0xbd86c997	-0.06581419
6	0xbd9a1c23	-0.07524898
7	0xbde108ff	-0.10988044
8	0xbd8b07c8	-0.067885935
9	0xbe1b2642	-0.15151313
10	0xbd9e2e46	-0.0772367
11	0xbdc1981e	-0.09452842
12	0xbba0dd7d	-0.004909216
13	0xbe0a395e	-0.13498446
14	0xbd9783b7	-0.073981695
15	0xbe2c3f7a	-0.1682109
16	0xbcc79f34	-0.024367906
17	0xbd87d0e0	-0.066316366
18	0xbd5725c7	-0.05252626
19	0x3d49dde0	0.049283862
20	0xbdd9cd9e	-0.106349215
21	0xbdc39a5d	-0.09550927
22	0xbbb0be08	-0.0053937472
23	0xbe029323	-0.1275144
24	0xbd91a94e	-0.071123704
25	0xbd5d1e19	-0.05398378
26	0xbdefe17a	-0.11712928
27	0xbd8abd23	-0.06774356
28	0xbe13e985	-0.1444455
29	0xbb9659fc	-0.0045883637
30	0xbde88478	-0.113533914
31	0xbd94bd20	-0.07262635
32	0x3ca0fcc2	0.019651774
33	0xbdd3f7f1	-0.103500254
34	0xbe1aad93	-0.15105276
35	0xbe09c5de	-0.13454387
36	0xbd2ee8a1	-0.04270232
37	0xbd947ce9	-0.07250387
38	0xbd89854f	-0.0671488
39	0xbcda08a6	-0.026615452
40	0xbde6d21d	-0.11270545
41	0xbda8d1a0	-0.08243108
42	0xb9db5c53	-0.00041839722
43	0xbe0bd757	-0.13656364
44	0xbe22e24c	-0.15906638
45	0xbe29f39e	-0.16596839
46	0xbd030bd0	-0.031993687
47	0xbd75c770	-0.06000465
48	0xbd126442	-0.035740145
49	0xbdaa3bd8	-0.083121955
50	0xbe22340e	-0.1584017
51	0xbe3110b0	-0.17291522
52	0xbc85740b	-0.016290685
53	0xbda7c3e4	-0.0819166
54	0xbd2c7b1a	-0.042109586
55	0xbd525dc5	-0.051358957
56	0xbd0fa389	-0.03506807
57	0xbe045a6e	-0.12925121
58	0xbcf73cc3	-0.03018034
59	0xbd628faa	-0.05531279
60	0xbe523770	-0.2052896
61	0xbd8d582b	-0.06901582
62	0xbe2d82eb	-0.16944472
63	0xbe3c3fa9	-0.1838366
64	0xbcba0b88	-0.022710577
65	0xbd6f0183	-0.05835105
66	0xbe1448e2	-0.14480928
67	0xbdb72d35	-0.089441694
68	0xbcfebe20	-0.031096518
69	0xbe4e5f3d	-0.20153518
70	0xbda48410	-0.080330014
71	0xbe17b571	-0.14815308
72	0x3d875081	0.06607152
73	0xbcc10958	-0.023564026
74	0xbdba27e1	-0.090896375
75	0xbe623355	-0.22089894
76	0xbd292afb	-0.041300755
77	0xbde83bd7	-0.113395385
78	0xbda21670	-0.07914436
79	0xbe5bcaf4	-0.21464139
80	0xbd9195a7	-0.07108622
81	0xbdeaa757	-0.11457699
82	0x3c3de1a9	0.011589446
83	0xbe2592ee	-0.1616933
84	0xbdb7a588	-0.089671195
85	0xbcefc773	-0.02926991
86	0xbdcdf27f	-0.10056018
87	0x3cb335c5	0.021876225
88	0xbd6efc17	-0.05834588
89	0xbe57ba5e	-0.21067187
90	0xbd8b480f	-0.068008535
91	0xbe106f51	-0.14104964
92	0x3ad04d2c	0.001589214
93	0xbd9ea8ec	-0.07747063
94	0xbdc1bbae	-0.09459625
95	0xbcb9a25c	-0.022660427
96	0xbd3851fa	-0.045000054
97	0xbdea092e	-0.11427532
98	0xbda53715	-0.08067147
99	0xbd37595a	-0.044762947

w f4 [1, 10]
0	0x3e1bdfb0	0.15222049
1	0x3e984f03	0.2974778
2	0x3de45fc8	0.11151081
3	0x3e4bcdd3	0.19902734
4	0x3e362189	0.1778623
5	0x3e639e90	0.22228456
6	0x3e589928	0.21152174
7	0x3e311339	0.17292489
8	0x3e55e325	0.2088743
9	0x3e86a3d7	0.26296875

proj.weight f4 [64, 10]
0	0xbde119d6	-0.10991256
1	0x3eb464c0	0.35233116
2	0xbed92eb9	-0.4241846
3	0xbd811ff5	-0.063049234
4	0xbea36686	-0.31914157
5	0x3d8b3cd2	0.0679871
6	0xbe038d03	-0.1284676
7	0x3e4fd58f	0.2029631
8	0xbd1773bf	-0.03697562
9	0x3e3c1d6e	0.18370602
10	0xbe263c4d	-0.1623394
11	0xbe04f245	-0.12983043
12	0xbdc2dbce	-0.09514581
13	0x3dfb05e2	0.122569814
14	0x3a857105	0.0010180777
15	0x3de9d490	0.11417496
16	0xbe0b9a37	-0.13633047
17	0xbd39d7f1	-0.045371953
18	0xbda20c8f	-0.079125516
19	0x3d3a6297	0.04550418
20	0xbea72b6e	-0.32650322
21	0x3e6c0138	0.2304734
22	0xbe8f3545	-0.2797033
23	0x3e58f110	0.21185708
24	0x3d7975a0	0.06090319
25	0xbe7722b8	-0.24134338
26	0xbc2be54f	-0.010491683
27	0xbeba5ca8	-0.36398816
28	0x3c7aca42	0.015307011
29	0x3e286752	0.16445664
30	0xbecf4862	-0.4048491
31	0x3eac7a6f	0.3368716
32	0x3e5c4fea	0.2151486
33	0x3d7f5a5a	0.062342025
34	0xbebadbe3	-0.36495885
35	0xbd6633ef	-0.05620187
36	0xbe654de8	-0.22393
37	0xbeb4c3c0	-0.35305595
38	0xbe45652b	-0.19276874
39	0x3e3117b9	0.17294206
40	0x3d539f38	0.051665515
41	0x3d2a064c	0.04150991
42	0x3dc0ee47	0.09420448
43	0x3e03b68f	0.1286261
44	0xbe038bf7	-0.12846361
45	0x3df22edc	0.11825344
46	0x3d8a1ed8	0.06744164
47	0x3b223313	0.002474968
48	0xbc9542f1	-0.018220397
49	0xbe60706f	-0.2191789
50	0x3ebd92be	0.37026018
51	0x3c6d3959	0.014479005
52	0x3de11c64	0.10991743
53	0x3b134451	0.002247114
54	0xbe2450a5	-0.16046388
55	0xbea00a4e	-0.31257862
56	0xbe061412	-0.13093594
57	0x3e93b358	0.28847766
58	0xbe74d9da	-0.23911229
59	0xbdebb1d0	-0.115085244
60	0x3e902e31	0.2816024
61	0xbe7c234b	-0.24622838
62	0xbe4daca8	-0.20085394
63	0xbd8ad8ef	-0.06779658
64	0xbb215392	-0.0024616462
65	0xbeb7e805	-0.35919204
66	0xbca2561f	-0.019816456
67	0x3e359431	0.17732312
68	0xbe3dd2e0	-0.18537474
69	0xbea2da1a	-0.31807023
70	0x3eb4dc8d	0.35324517
71	0xbd29ff17	-0.04150304
72	0xbe6f89ef	-0.23392461
73	0xbdad1cc6	-0.08452754
74	0x3df2adfd	0.11849592
75	0xbea2b404	-0.31777966
76	0x3eae8a02	0.34089667
77	0xbc6a0128	-0.014282502
78	0x3ea1bc3c	0.31588924
79	0xbcfe7de0	-0.031065881
80	0x3d727ca7	0.05920091
81	0xbd32a310	-0.04361254
82	0xbd5207aa	-0.05127684
83	0xbe74f35b	-0.23920958
84	0xbd81eea8	-0.06344348
85	0x3e9ac18f	0.30225798
86	0x3dfb33cc	0.12265739
87	0x3e127cfe	0.14305493
88	0x3d782028	0.06057754
89	0x3daea90f	0.08528339
90	0xbc1993b2	-0.009373592
91	0x3e68b281	0.22724344
92	0xbd51f686	-0.051260494
93	0xbdc366c3	-0.095410846
94	0x3e8928cf	0.26788947
95	0xbddc72de	-0.10764097
96	0xbd89af95	-0.06722943
97	0x3dc39279	0.09549422
98	0x3e71f631	0.23629071
99	0xbdb72651	-0.08942855
100	0xbe79a8b2	-0.24380758
101	0x3e6cc555	0.23122151
102	0x3e861622	0.2618876
103	0xbd86a518	-0.06574458
104	0xbdba8ba2	-0.09108664
105	0xbeac894f	-0.33698508
106	0x3d899200	0.067173004
107	0xbd3b2a92	-0.045694895
108	0xbeb00145	-0.3437597
109	0x3e9f78c8	0.31146836
110	0xbdc068bd	-0.09394977
111	0xbc28ab18	-0.010294698
112	0xbe78c309	-0.2429315
113	0xbcfa61d4	-0.030564226
114	0x3dbe7827	0.09300261
115	0x3e9033cd	0.2816452
116	0xbe0641aa	-0.13110986
117	0x3e90dc0c	0.28292882
118	0xbe8e1d45	-0.27756706
119	0xbe0e1171	-0.13873841
120	0xbe82b38e	-0.25527614
121	0xbe584fdf	-0.21124218
122	0xbe3eabe0	-0.18620253
123	0xbe28de59	-0.16491069
124	0x3cc2f949	0.023800509
125	0x3e0f176a	0.13973776
126	0x3e065541	0.1311846
127	0x3e42c06a	0.19018713
128	0x3ec1c898	0.37848353
129	0xbe24e098	-0.161013
130	0x3cc55ecc	0.024093054
131	0xbc4c4405	-0.012467389
132	0xbdf15cb0	-0.11785257
133	0xbdeb6efe	-0.114957795
134	0x3e925b39	0.28585222
135	0x3e11d71d	0.14242215
136	0x3dbaf3e5	0.091285504
137	0x3e948986	0.29011172
138	0x3e964f83	0.29357538
139	0xbd95aa0b	-0.07307824
140	0xbd6afcc8	-0.057369977
141	0xbe940e01	-0.28916934
142	0x3eb9a439	0.36258104
143	0xbabd90dc	-0.0014462727
144	0xbd9a2eaf	-0.075284354
145	0xbe897a79	-0.26851252
146	0x3e0ddf97	0.13854824
147	0x3ec3703d	0.3817157
148	0xbd0f7909	-0.035027537
149	0x3e999095	0.2999312
150	0x3e2391b1	0.15973546
151	0x3eb98b0b	0.36238894
152	0xbe85e42f	-0.26150653
153	0x3ddfef49	0.10934312
154	0x3e3e6af8	0.18595493
155	0x3db059b9	0.08610863
156	0xbe6e2506	-0.23256311
157	0x3c8eb62e	0.017420854
158	0x3d9da8c5	0.07698206
159	0x3e5dadba	0.21648303
160	0x3d36bd0a	0.044613875
161	0xbe463688	-0.1935674
162	0xbe1b267d	-0.15151401
163	0xbce7d089	-0.02829768
164	0x3eaa4092	0.33252388
165	0x3e8b896e	0.27253288
166	0xbede31e0	-0.43397427
167	0xbebf6518	-0.37381816
168	0xbd32fb96	-0.043696962
169	0x3cf93c4c	0.03042426
170	0x3eca5b89	0.3952296
171	0xbcf408ff	-0.029789446
172	0xbe9e8b75	-0.30965772
173	0xbe9c7b9b	-0.30563053
174	0xbe89105f	-0.26770303
175	0xbdfdee1b	-0.12398931
176	0xbea86c47	-0.3289511
177	0x3ea5defd	0.3239669
178	0x3ee3c4e1	0.44486144
179	0xbd38f395	-0.045154173
180	0xbeb1369c	-0.34611976
181	0x3de5cf19	0.11221141
182	0xbd99148d	-0.07474623
183	0xbea4a2c9	-0.32155445
184	0xbe797aa5	-0.24363191
185	0x3e4b3dfc	0.19847864
186	0x3dac355f	0.08408617
187	0xbd0f7e00	-0.035032272
188	0x3eb680f3	0.35645255
189	0xbea9d5a1	-0.33170798
190	0x3da2f749	0.07957322
191	0xbe22396f	-0.15842222
192	0x3b31c51a	0.0027125538
193	0x3e1f5131	0.15558316
194	0xbdbf2f64	-0.09335211
195	0xbe47652d	-0.19472189
196	0x3e806d8a	0.25083572
197	0x3e93148b	0.2872661
198	0xbe7f14a5	-0.24910219
199	0xbcaf895b	-0.0214278
200	0xbe01f407	-0.12690745
201	0xbed38b0a	-0.41317016
202	0x3eeda1af	0.46412417
203	0x3e4ca0b1	0.19983174
204	0x3e822a38	0.25422835
205	0x3ea36c0c	0.3191837
206	0x3e076fd3	0.13226251
207	0xbecf1d72	-0.40452152
208	0x3def0e88	0.116726935
209	0xbd29899c	-0.041391
210	0x3dcd949c	0.100381106
211	0x3c35503c	0.011066493
212	0x3dec2d61	0.11532093
213	0xbe7cd3f5	-0.2469023
214	0x3e2fc35c	0.17164367
215	0x3e5f3167	0.21796189
216	0x3c9ffd25	0.019529888
217	0x3d693ad7	0.05694088
218	0xbe58ce10	-0.21172357
219	0xbe9bf9cb	-0.30464014
220	0x3e7a2417	0.2442783
221	0x3e52244b	0.20521657
222	0xbebe74f3	-0.371986
223	0x3dad7ca5	0.0847104
224	0xbea70d8e	-0.3262753
225	0x3e85fddd	0.26170245
226	0xbe5e1bba	-0.21690264
227	0x3ce662fa	0.028123368
228	0xbebc2c8f	-0.36752746
229	0xbe8ab502	-0.27091223
230	0xbd8f928d	-0.07010374
231	0x3ea00919	0.3125694
232	0x3cc86621	0.024462761
233	0xbd4510bc	-0.048111662
234	0xbeb5d0bc	-0.35510814
235	0x3e25a284	0.16175276
236	0xbe1287a7	-0.1430956
237	0xbe95fd4c	-0.29294813
238	0xbd5c97cd	-0.053855706
239	0x3eb6f0dc	0.35730636
240	0xbd7b628b	-0.061373275
241	0x3ecb7082	0.39734274
242	0x3e2daa76	0.16959557
243	0xbe877252	-0.26454407
244	0xbe58d3c6	-0.21174535
245	0x3f0e6961	0.55629545
246	0xbef460f2	-0.47730213
247	0xbebee7d9	-0.3728626
248	0x3f07afa0	0.5300236
249	0x3daccb18	0.084371746
250	0x3e8356a3	0.25652036
251	0xbd251c27	-0.04031005
252	0xbe58b6ac	-0.21163434
253	0x3e816b78	0.25277305
254	0xbe144191	-0.14478137
255	0x3ec00b35	0.3750855

proj.bias f4 [64]
0	0x3dc9f9c3	0.098620914
1	0x3dd6b072	0.10482873
2	0x3e5295ed	0.20565005
3	0x3e856cb3	0.26059493
4	0xbd9df2e0	-0.0771234
5	0x3cd02c79	0.025411831
6	0x3e8d62d9	0.27614477
7	0xbe2e46d7	-0.17019211
8	0xbdea4729	-0.11439354
9	0xbdb48409	-0.08814246
10	0x3e1701c8	0.14746773
11	0x3e25158a	0.16121498
12	0xbc8177f8	-0.015804276
13	0xbe7bdec0	-0.24596691
14	0xbe4353bf	-0.19074915
15	0xbe1487a1	-0.14504863
16	0x3e671fd6	0.22570738
17	0xbcce6140	-0.025192857
18	0x3e209b11	0.15684153
19	0xbd1973f0	-0.037464082
20	0xbe4395c2	-0.19100097
21	0x3db106a4	0.08643845
22	0x3e79918b	0.24371926
23	0x3d2f3d92	0.042783327
24	0xbe129335	-0.14313968
25	0xbe503b67	-0.2033516
26	0xbc9d0655	-0.019168058
27	0x3eb0a993	0.34504375
28	0xbd3232d5	-0.04350551
29	0x3e1bb5c6	0.1520606
30	0xbd83e45f	-0.06440043
31	0x3e85782e	0.26068252
32	0xbce2e35c	-0.027696304
33	0xbe846324	-0.25856888
34	0x3d9445b2	0.07239856
35	0x3e25d1a4	0.16193253
36	0xbc07263d	-0.008248863
37	0xbe6c0291	-0.23047854
38	0xbea2c991	-0.31794408
39	0x3e8daf1d	0.27672663
40	0xbe00fb42	-0.12595847
41	0xbda441e4	-0.0802038
42	0xbdc5a552	-0.09650673
43	0xbd81f8e2	-0.06346299
44	0xbd868ac2	-0.06569435
45	0xbe12c2fd	-0.14332195
46	0x3e411262	0.18854669
47	0x3e63fd16	0.22264513
48	0x3db92672	0.09040536
49	0x3dd9650b	0.106149755
50	0x3d9f8a5e	0.07790063
51	0x3e15b898	0.14621198
52	0xbe1b654d	-0.15175362
53	0xbda83c0b	-0.08214577
54	0x3e547d40	0.20750904
55	0x3eb830cd	0.35974732
56	0xbde0fb0e	-0.10985385
57	0xbe1f7889	-0.15573324
58	0xbe33d4df	-0.17561673
59	0x3d39e794	0.045386866
60	0xbdb82cf8	-0.08992952
61	0xbe76cb5f	-0.24101017
62	0x3e35c5c7	0.17751227
63	0xbe0bba5e	-0.13645312

logits f4 [2]
0	0x3e1b8ca8	0.15190375
1	0xbe1b8caa	-0.15190378
